Found 2000 images belonging to 2 classes.
Found 1000 images belonging to 2 classes.
Found 3050 images belonging to 1 classes.
Found 2000 images belonging to 2 classes.
TensorFlow version: 2.13.0
Num GPUs Available:  1
Model: "sequential"
_________________________________________________________________
 Layer (type)                Output Shape              Param #   
=================================================================
 conv2d (Conv2D)             (None, 150, 150, 16)      448       
                                                                 
 max_pooling2d (MaxPooling2  (None, 75, 75, 16)        0         
 D)                                                              
                                                                 
 conv2d_1 (Conv2D)           (None, 75, 75, 32)        4640      
                                                                 
 max_pooling2d_1 (MaxPoolin  (None, 37, 37, 32)        0         
 g2D)                                                            
                                                                 
 conv2d_2 (Conv2D)           (None, 37, 37, 64)        18496     
                                                                 
 max_pooling2d_2 (MaxPoolin  (None, 18, 18, 64)        0         
 g2D)                                                            
                                                                 
 dropout (Dropout)           (None, 18, 18, 64)        0         
                                                                 
 flatten (Flatten)           (None, 20736)             0         
                                                                 
 dense (Dense)               (None, 128)               2654336   
                                                                 
 dense_1 (Dense)             (None, 2)                 258       
                                                                 
=================================================================
Total params: 2678178 (10.22 MB)
Trainable params: 2678178 (10.22 MB)
Non-trainable params: 0 (0.00 Byte)
_________________________________________________________________
Epoch 1/30
 1/10 [==>...........................] - ETA: 42s - loss: 0.7031 - accuracy:
…
